…
      "outputs": [
        {
          "output_type": "stream",
          "name": "stdout",
          "text": [
            "Model: \"model\"\n",
            "_________________________________________________________________\n",
            " Layer (type)                Output Shape              Param #   \n",
            "=================================================================\n",
            " input_1 (InputLayer)        [(None, 6)]               0         \n",
            "                                                                 \n",
            " multi_category_encoding (Mu  (None, 6)                0         \n",
            " ltiCategoryEncoding)                                            \n",
            "                                                                 \n",
            " normalization (Normalizatio  (None, 6)                13        \n",
            " n)                                                              \n",
            "                                                                 \n",
            " dense (Dense)               (None, 16)                112       \n",
            "                                                                 \n",
            " re_lu (ReLU)                (None, 16)                0         \n",
            "                                                                 \n",
            " dropout (Dropout)           (None, 16)                0         \n",
            "                                                                 \n",
            " dense_1 (Dense)             (None, 32)                544       \n",
            "                                                                 \n",
            " re_lu_1 (ReLU)              (None, 32)                0         \n",
            "                                                                 \n",
            " dropout_1 (Dropout)         (None, 32)                0         \n",
            "                                                                 \n",
            " dropout_2 (Dropout)         (None, 32)                0         \n",
            "                                                                 \n",
            " dense_2 (Dense)             (None, 1)                 33        \n",
            "                                                                 \n",
            " classification_head_1 (Acti  (None, 1)                0         \n",
            " vation)                                                         \n",
            "                                                                 \n",
            "=================================================================\n",
            "Total params: 702\n",
            "Trainable params: 689\n",
            "Non-trainable params: 13\n",
            "_________________________________________________________________\n"
…
